…
SVD --------------------------------------------------

PCA --------------------------------------------------

Model Training --------------------------------------------------
/home/mnguyen/anaconda3/envs/gb/lib/python3.9/site-packages/tensorflow/python/keras/optimizer_v2/optimizer_v2.py:374: UserWarning: The `lr` argument is deprecated, use `learning_rate` instead.
  warnings.warn(
Model: "sequential"
_________________________________________________________________
Layer (type)                 Output Shape              Param #   
=================================================================
conv2d (Conv2D)              (None, 198, 198, 16)      448       
_________________________________________________________________
max_pooling2d (MaxPooling2D) (None, 99, 99, 16)        0         
_________________________________________________________________
conv2d_1 (Conv2D)            (None, 97, 97, 32)        4640      
_________________________________________________________________
max_pooling2d_1 (MaxPooling2 (None, 48, 48, 32)        0         
_________________________________________________________________
conv2d_2 (Conv2D)            (None, 46, 46, 64)        18496     
_________________________________________________________________
max_pooling2d_2 (MaxPooling2 (None, 23, 23, 64)        0         
_________________________________________________________________
conv2d_3 (Conv2D)            (None, 21, 21, 64)        36928     
_________________________________________________________________
max_pooling2d_3 (MaxPooling2 (None, 10, 10, 64)        0         
_________________________________________________________________
flatten (Flatten)            (None, 6400)              0         
_________________________________________________________________
dense (Dense)                (None, 128)               819328    
_________________________________________________________________
flatten_1 (Flatten)          (None, 128)               0         
_________________________________________________________________
dense_1 (Dense)              (None, 128)               16512     
_________________________________________________________________
dropout (Dropout)            (None, 128)               0         
_________________________________________________________________
dense_2 (Dense)              (None, 4)                 516       
=================================================================
Total params: 896,868
Trainable params: 896,868
Non-trainable params: 0
_________________________________________________________________
None
/home/mnguyen/anaconda3/envs/gb/lib/python3.9/site-packages/tensorflow/python/keras/engine/training.py:1940: UserWarning: `Model.fit_generator` is deprecated and will be removed in a future version. Please use `Model.fit`, which supports generators.
  warnings.warn('`Model.fit_generator` is deprecated and '


drop  =  0.0 done, next...
Model: "sequential_1"
_________________________________________________________________
Layer (type)                 Output Shape              Param #   
=================================================================
conv2d_4 (Conv2D)            (None, 198, 198, 16)      448       
_________________________________________________________________
max_pooling2d_4 (MaxPooling2 (None, 99, 99, 16)        0         
_________________________________________________________________
conv2d_5 (Conv2D)            (None, 97, 97, 32)        4640      
_________________________________________________________________
max_pooling2d_5 (MaxPooling2 (None, 48, 48, 32)        0         
_________________________________________________________________
conv2d_6 (Conv2D)            (None, 46, 46, 64)        18496     
_________________________________________________________________
max_pooling2d_6 (MaxPooling2 (None, 23, 23, 64)        0         
_________________________________________________________________
conv2d_7 (Conv2D)            (None, 21, 21, 64)        36928     
_________________________________________________________________
max_pooling2d_7 (MaxPooling2 (None, 10, 10, 64)        0         
_________________________________________________________________
flatten_2 (Flatten)          (None, 6400)              0         
_________________________________________________________________
dense_3 (Dense)              (None, 128)               819328    
_________________________________________________________________
flatten_3 (Flatten)          (None, 128)               0         
_________________________________________________________________
dense_4 (Dense)              (None, 128)               16512     
_________________________________________________________________
dropout_1 (Dropout)          (None, 128)               0         
_________________________________________________________________
dense_5 (Dense)              (None, 4)                 516       
=================================================================
Total params: 896,868
Trainable params: 896,868
Non-trainable params: 0
_________________________________________________________________
None
^[  



drop  =  0.1 done, next...
Model: "sequential_2"
_________________________________________________________________
Layer (type)                 Output Shape              Param #   
=================================================================
conv2d_8 (Conv2D)            (None, 198, 198, 16)      448       
_________________________________________________________________
max_pooling2d_8 (MaxPooling2 (None, 99, 99, 16)        0         
_________________________________________________________________
conv2d_9 (Conv2D)            (None, 97, 97, 32)        4640      
_________________________________________________________________
max_pooling2d_9 (MaxPooling2 (None, 48, 48, 32)        0         
_________________________________________________________________
conv2d_10 (Conv2D)           (None, 46, 46, 64)        18496     
_________________________________________________________________
max_pooling2d_10 (MaxPooling (None, 23, 23, 64)        0         
_________________________________________________________________
conv2d_11 (Conv2D)           (None, 21, 21, 64)        36928     
_________________________________________________________________
max_pooling2d_11 (MaxPooling (None, 10, 10, 64)        0         
_________________________________________________________________
flatten_4 (Flatten)          (None, 6400)              0         
_________________________________________________________________
dense_6 (Dense)              (None, 128)               819328    
_________________________________________________________________
flatten_5 (Flatten)          (None, 128)               0         
_________________________________________________________________
dense_7 (Dense)              (None, 128)               16512     
_________________________________________________________________
dropout_2 (Dropout)          (None, 128)               0         
_________________________________________________________________
dense_8 (Dense)              (None, 4)                 516       
=================================================================
Total params: 896,868
Trainable params: 896,868
Non-trainable params: 0
_________________________________________________________________
None
drop  =  0.2 done, next...
Model: "sequential_3"
_________________________________________________________________
Layer (type)                 Output Shape              Param #   
=================================================================
conv2d_12 (Conv2D)           (None, 198, 198, 16)      448       
_________________________________________________________________
max_pooling2d_12 (MaxPooling (None, 99, 99, 16)        0         
_________________________________________________________________
conv2d_13 (Conv2D)           (None, 97, 97, 32)        4640      
_________________________________________________________________
max_pooling2d_13 (MaxPooling (None, 48, 48, 32)        0         
_________________________________________________________________
conv2d_14 (Conv2D)           (None, 46, 46, 64)        18496     
_________________________________________________________________
max_pooling2d_14 (MaxPooling (None, 23, 23, 64)        0         
_________________________________________________________________
conv2d_15 (Conv2D)           (None, 21, 21, 64)        36928     
_________________________________________________________________
max_pooling2d_15 (MaxPooling (None, 10, 10, 64)        0         
_________________________________________________________________
flatten_6 (Flatten)          (None, 6400)              0         
_________________________________________________________________
dense_9 (Dense)              (None, 128)               819328    
_________________________________________________________________
flatten_7 (Flatten)          (None, 128)               0         
_________________________________________________________________
dense_10 (Dense)             (None, 128)               16512     
_________________________________________________________________
dropout_3 (Dropout)          (None, 128)               0         
_________________________________________________________________
dense_11 (Dense)             (None, 4)                 516       
=================================================================
Total params: 896,868
Trainable params: 896,868
Non-trainable params: 0
_________________________________________________________________
None
drop  =  0.3 done, next...
Model: "sequential_4"
_________________________________________________________________
Layer (type)                 Output Shape              Param #   
=================================================================
conv2d_16 (Conv2D)           (None, 198, 198, 16)      448       
_________________________________________________________________
max_pooling2d_16 (MaxPooling (None, 99, 99, 16)        0         
_________________________________________________________________
conv2d_17 (Conv2D)           (None, 97, 97, 32)        4640      
_________________________________________________________________
max_pooling2d_17 (MaxPooling (None, 48, 48, 32)        0         
_________________________________________________________________
conv2d_18 (Conv2D)           (None, 46, 46, 64)        18496     
_________________________________________________________________
max_pooling2d_18 (MaxPooling (None, 23, 23, 64)        0         
_________________________________________________________________
conv2d_19 (Conv2D)           (None, 21, 21, 64)        36928     
_________________________________________________________________
max_pooling2d_19 (MaxPooling (None, 10, 10, 64)        0         
_________________________________________________________________
flatten_8 (Flatten)          (None, 6400)              0         
_________________________________________________________________
dense_12 (Dense)             (None, 128)               819328    
_________________________________________________________________
flatten_9 (Flatten)          (None, 128)               0         
_________________________________________________________________
dense_13 (Dense)             (None, 128)               16512     
_________________________________________________________________
dropout_4 (Dropout)          (None, 128)               0         
_________________________________________________________________
dense_14 (Dense)             (None, 4)                 516       
=================================================================
Total params: 896,868
Trainable params: 896,868
Non-trainable params: 0
_________________________________________________________________
None
drop  =  0.4 done, next...
Model: "sequential_5"
_________________________________________________________________
Layer (type)                 Output Shape              Param #   
=================================================================
conv2d_20 (Conv2D)           (None, 198, 198, 16)      448       
_________________________________________________________________
max_pooling2d_20 (MaxPooling (None, 99, 99, 16)        0         
_________________________________________________________________
conv2d_21 (Conv2D)           (None, 97, 97, 32)        4640      
_________________________________________________________________
max_pooling2d_21 (MaxPooling (None, 48, 48, 32)        0         
_________________________________________________________________
conv2d_22 (Conv2D)           (None, 46, 46, 64)        18496     
_________________________________________________________________
max_pooling2d_22 (MaxPooling (None, 23, 23, 64)        0         
_________________________________________________________________
conv2d_23 (Conv2D)           (None, 21, 21, 64)        36928     
_________________________________________________________________
max_pooling2d_23 (MaxPooling (None, 10, 10, 64)        0         
_________________________________________________________________
flatten_10 (Flatten)         (None, 6400)              0         
_________________________________________________________________
dense_15 (Dense)             (None, 128)               819328    
_________________________________________________________________
flatten_11 (Flatten)         (None, 128)               0         
_________________________________________________________________
dense_16 (Dense)             (None, 128)               16512     
_________________________________________________________________
dropout_5 (Dropout)          (None, 128)               0         
_________________________________________________________________
dense_17 (Dense)             (None, 4)                 516       
=================================================================
Total params: 896,868
Trainable params: 896,868
Non-trainable params: 0
_________________________________________________________________
None
drop  =  0.5 done, next...
Model: "sequential_6"
_________________________________________________________________
Layer (type)                 Output Shape              Param #   
=================================================================
conv2d_24 (Conv2D)           (None, 198, 198, 16)      448       
_________________________________________________________________
max_pooling2d_24 (MaxPooling (None, 99, 99, 16)        0         
_________________________________________________________________
conv2d_25 (Conv2D)           (None, 97, 97, 32)        4640      
_________________________________________________________________
max_pooling2d_25 (MaxPooling (None, 48, 48, 32)        0         
_________________________________________________________________
conv2d_26 (Conv2D)           (None, 46, 46, 64)        18496     
_________________________________________________________________
max_pooling2d_26 (MaxPooling (None, 23, 23, 64)        0         
_________________________________________________________________
conv2d_27 (Conv2D)           (None, 21, 21, 64)        36928     
_________________________________________________________________
max_pooling2d_27 (MaxPooling (None, 10, 10, 64)        0         
_________________________________________________________________
flatten_12 (Flatten)         (None, 6400)              0         
_________________________________________________________________
dense_18 (Dense)             (None, 128)               819328    
_________________________________________________________________
flatten_13 (Flatten)         (None, 128)               0         
_________________________________________________________________
dense_19 (Dense)             (None, 128)               16512     
_________________________________________________________________
dropout_6 (Dropout)          (None, 128)               0         
_________________________________________________________________
dense_20 (Dense)             (None, 4)                 516       
=================================================================
Total params: 896,868
Trainable params: 896,868
Non-trainable params: 0
_________________________________________________________________
None
drop  =  0.6 done, next...
Model: "sequential_7"
_________________________________________________________________
Layer (type)                 Output Shape              Param #   
=================================================================
conv2d_28 (Conv2D)           (None, 198, 198, 16)      448       
_________________________________________________________________
max_pooling2d_28 (MaxPooling (None, 99, 99, 16)        0         
_________________________________________________________________
conv2d_29 (Conv2D)           (None, 97, 97, 32)        4640      
_________________________________________________________________
max_pooling2d_29 (MaxPooling (None, 48, 48, 32)        0         
_________________________________________________________________
conv2d_30 (Conv2D)           (None, 46, 46, 64)        18496     
_________________________________________________________________
max_pooling2d_30 (MaxPooling (None, 23, 23, 64)        0         
_________________________________________________________________
conv2d_31 (Conv2D)           (None, 21, 21, 64)        36928     
_________________________________________________________________
max_pooling2d_31 (MaxPooling (None, 10, 10, 64)        0         
_________________________________________________________________
flatten_14 (Flatten)         (None, 6400)              0         
_________________________________________________________________
dense_21 (Dense)             (None, 128)               819328    
_________________________________________________________________
flatten_15 (Flatten)         (None, 128)               0         
_________________________________________________________________
dense_22 (Dense)             (None, 128)               16512     
_________________________________________________________________
dropout_7 (Dropout)          (None, 128)               0         
_________________________________________________________________
dense_23 (Dense)             (None, 4)                 516       
=================================================================
Total params: 896,868
Trainable params: 896,868
Non-trainable params: 0
_________________________________________________________________
None
drop  =  0.7 done, next...
Model: "sequential_8"
_________________________________________________________________
Layer (type)                 Output Shape              Param #   
=================================================================
conv2d_32 (Conv2D)           (None, 198, 198, 16)      448       
_________________________________________________________________
max_pooling2d_32 (MaxPooling (None, 99, 99, 16)        0         
_________________________________________________________________
conv2d_33 (Conv2D)           (None, 97, 97, 32)        4640      
_________________________________________________________________
max_pooling2d_33 (MaxPooling (None, 48, 48, 32)        0         
_________________________________________________________________
conv2d_34 (Conv2D)           (None, 46, 46, 64)        18496     
_________________________________________________________________
max_pooling2d_34 (MaxPooling (None, 23, 23, 64)        0         
_________________________________________________________________
conv2d_35 (Conv2D)           (None, 21, 21, 64)        36928     
_________________________________________________________________
max_pooling2d_35 (MaxPooling (None, 10, 10, 64)        0         
_________________________________________________________________
flatten_16 (Flatten)         (None, 6400)              0         
_________________________________________________________________
dense_24 (Dense)             (None, 128)               819328    
_________________________________________________________________
flatten_17 (Flatten)         (None, 128)               0         
_________________________________________________________________
dense_25 (Dense)             (None, 128)               16512     
_________________________________________________________________
dropout_8 (Dropout)          (None, 128)               0         
_________________________________________________________________
dense_26 (Dense)             (None, 4)                 516       
=================================================================
Total params: 896,868
Trainable params: 896,868
Non-trainable params: 0
_________________________________________________________________
None
drop  =  0.8 done, next...
Model: "sequential_9"
_________________________________________________________________
Layer (type)                 Output Shape              Param #   
=================================================================
conv2d_36 (Conv2D)           (None, 198, 198, 16)      448       
_________________________________________________________________
max_pooling2d_36 (MaxPooling (None, 99, 99, 16)        0         
_________________________________________________________________
conv2d_37 (Conv2D)           (None, 97, 97, 32)        4640      
_________________________________________________________________
max_pooling2d_37 (MaxPooling (None, 48, 48, 32)        0         
_________________________________________________________________
conv2d_38 (Conv2D)           (None, 46, 46, 64)        18496     
_________________________________________________________________
max_pooling2d_38 (MaxPooling (None, 23, 23, 64)        0         
_________________________________________________________________
conv2d_39 (Conv2D)           (None, 21, 21, 64)        36928     
_________________________________________________________________
max_pooling2d_39 (MaxPooling (None, 10, 10, 64)        0         
_________________________________________________________________
flatten_18 (Flatten)         (None, 6400)              0         
_________________________________________________________________
dense_27 (Dense)             (None, 128)               819328    
_________________________________________________________________
flatten_19 (Flatten)         (None, 128)               0         
_________________________________________________________________
dense_28 (Dense)             (None, 128)               16512     
_________________________________________________________________
dropout_9 (Dropout)          (None, 128)               0         
_________________________________________________________________
dense_29 (Dense)             (None, 4)                 516       
=================================================================
Total params: 896,868
Trainable params: 896,868
Non-trainable params: 0
_________________________________________________________________
None
drop  =  0.9 done, next...
best drop =  0.7 best epochs =  25 best_weights =  ../pathology_dataset/saved_model/drop7.hdf5
Model: "sequential_10"
_________________________________________________________________
Layer (type)                 Output Shape              Param #   
=================================================================
conv2d_40 (Conv2D)           (None, 198, 198, 16)      448       
_________________________________________________________________
max_pooling2d_40 (MaxPooling (None, 99, 99, 16)        0         
_________________________________________________________________
conv2d_41 (Conv2D)           (None, 97, 97, 32)        4640      
_________________________________________________________________
max_pooling2d_41 (MaxPooling (None, 48, 48, 32)        0         
_________________________________________________________________
conv2d_42 (Conv2D)           (None, 46, 46, 64)        18496     
_________________________________________________________________
max_pooling2d_42 (MaxPooling (None, 23, 23, 64)        0         
_________________________________________________________________
conv2d_43 (Conv2D)           (None, 21, 21, 64)        36928     
_________________________________________________________________
max_pooling2d_43 (MaxPooling (None, 10, 10, 64)        0         
_________________________________________________________________
flatten_20 (Flatten)         (None, 6400)              0         
_________________________________________________________________
dense_30 (Dense)             (None, 128)               819328    
_________________________________________________________________
flatten_21 (Flatten)         (None, 128)               0         
_________________________________________________________________
dense_31 (Dense)             (None, 128)               16512     
_________________________________________________________________
dropout_10 (Dropout)         (None, 128)               0         
_________________________________________________________________
dense_32 (Dense)             (None, 4)                 516       
=================================================================
Total params: 896,868
Trainable params: 896,868
Non-trainable params: 0
_________________________________________________________________
None
Epoch 1/80
62/62 [==============================] - 12s 184ms/step - loss: 1.4022 - categorical_accuracy: 0.2373 - categorical_auc: 0.4861 - val_loss: 1.3825 - val_categorical_accuracy: 0.3379 - val_categorical_auc: 0.4979
…
